tft_model.ckpt (torch, 368814 bytes, 400 tensors)

input_embeddings.embeddings.static_feature.weight f4 [5, 4]
0	0x408860b9	4.261807
1	0x3f3acdd5	0.72970325
2	0xbe5cf7a6	-0.21578845
3	0xbf3d998e	-0.7406243
4	0x4070a474	3.7600374
5	0xbfe84f8e	-1.8149278
6	0xc0409414	-3.009038
7	0x3e9e535e	0.3092298
8	0xc0077043	-2.116227
9	0x3fcc5429	1.5963184
10	0x3f33b2cc	0.701947
11	0xbe6daf31	-0.23211361
12	0xbecc335f	-0.39882943
13	0x3eb62fe5	0.35583416
14	0x3e857024	0.2606212
15	0x40b019bf	5.503143
16	0x3f883d01	1.0643617
17	0x401d17b3	2.4545715
18	0xbf0e3fdc	-0.5556619
19	0xc002a69b	-2.0414188

prescalers.time_idx.weight f4 [8, 1]
0	0x3f8479c6	1.0349662
1	0xbdf6a02b	-0.12042268
2	0x3d6776f6	0.056509934
3	0xbe47fc8b	-0.19529931
4	0xbd820397	-0.06348341
5	0x3f9436c1	1.157921
6	0x3e3e5da7	0.18590413
7	0xbf0e11bb	-0.55495805

prescalers.time_idx.bias f4 [8]
0	0x3eea991a	0.45819932
1	0x3fafaba6	1.3724258
2	0xbf41c965	-0.7569793
3	0x3f9662a9	1.1748859
4	0xbf901c57	-1.1258649
5	0xbf212075	-0.6294015
6	0x3f2994d5	0.66242725
7	0xbfd9ef4c	-1.7026153

prescalers.value.weight f4 [8, 1]
0	0x3f6454b3	0.8919174
1	0xbfaa4494	-1.3302178
2	0xbffd312e	-1.9780633
3	0xc017be3d	-2.3709862
4	0x3b27d4e0	0.002560906
5	0x3f7080c7	0.939465
6	0x3fe0b06d	1.7553841
7	0x3fdc64a0	1.7218208

prescalers.value.bias f4 [8]
0	0x3fecbf6b	1.8495916
1	0xbfd6ac70	-1.6771374
2	0xc05d7ebc	-3.4608603
3	0x3fec5885	1.8464514
4	0x3fe95111	1.8227865
5	0xbe9124ff	-0.28348538
6	0x3faf244d	1.3682953
7	0x3f91251a	1.1339447

static_variable_selection.single_variable_grns.static_feature.mask f4 [16]
0	0x3fbadce5	1.4598662
1	0x3fa39034	1.2778382
2	0x4009a087	2.1504228
3	0x3f22a38e	0.63530815
4	0x400176f0	2.0228844
5	0x3ef1035d	0.47072878
6	0xbff37fc7	-1.902337
7	0xbfd38d8c	-1.6527572
8	0xbecaafd9	-0.39587286
9	0xbf58391b	-0.84462136
10	0xc0036491	-2.053013
11	0x3e218b4c	0.15775794
12	0x3fe603e3	1.7969936
13	0xc06d4f99	-3.7079833
14	0x3f928d03	1.1449283
15	0xc0275b9c	-2.6149664

static_variable_selection.single_variable_grns.static_feature.norm.weight f4 [16]
0	0x4092d71a	4.5887575
1	0x407c456d	3.9417374
2	0x403bab33	2.9323242
3	0x400d2f6b	2.2060192
4	0x400da62f	2.213268
5	0x3fd5c2e0	1.6700096
6	0xbfa3110c	-1.2739577
7	0x3f1fe434	0.62457585
8	0x3fb34375	1.4004961
9	0x3fb165c8	1.3859186
10	0xbe9fe20e	-0.31227154
11	0x4008ebe8	2.1393986
12	0x403d5051	2.9580271
13	0x3fce8171	1.6133252
14	0x403552f5	2.8331883
15	0x4020e72b	2.5141094

static_variable_selection.single_variable_grns.static_feature.norm.bias f4 [16]
0	0xbbe3d888	-0.006953303
1	0x3e525acd	0.2054245
2	0x3dc09a22	0.094043985
3	0xbf743a03	-0.9540102
4	0x3e75b0a8	0.2399317
5	0x3f8c5131	1.0962278
6	0x3e6d7c14	0.23191863
7	0x3e65b2d3	0.22431497
8	0x3faa950c	1.3326735
9	0x3f9f45f8	1.2443228
10	0x3ff9679d	1.9484745
11	0xbb1184ea	-0.0022204467
12	0x3f6d4d0d	0.92695695
13	0xbf1f6618	-0.6226516
14	0x3e162d83	0.14665799
15	0x3e60862c	0.21926183

encoder_variable_selection.flattened_grn.resample_norm.mask f4 [2]
0	0xbef6fda1	-0.48240378
1	0x3ef0dffe	0.47045892

encoder_variable_selection.flattened_grn.resample_norm.norm.weight f4 [2]
0	0x3e98a956	0.29816693
1	0x3e9897d9	0.2980335

encoder_variable_selection.flattened_grn.resample_norm.norm.bias f4 [2]
0	0xbf8a7061	-1.0815545
1	0x3f8a70fc	1.081573

encoder_variable_selection.flattened_grn.fc1.weight f4 [2, 16]
0	0xbeffcf18	-0.49962687
1	0x3e65d554	0.2244466
2	0xbe9d89de	-0.30769247
3	0xbf69cb2c	-0.9132564
4	0x3d720cc8	0.05909422
5	0xbe4a6ec5	-0.19768818
6	0x3dc49673	0.095990084
7	0x3e507fd1	0.20361258
8	0x3e829470	0.25503874
9	0x3e0b6601	0.1361313
10	0x3d31cbfc	0.043407425
11	0x3e33e2fb	0.17567055
12	0xbf02e0b0	-0.51124096
13	0x3e8d3f33	0.2758728
14	0xbf2ab987	-0.6668934
15	0x3e8a609a	0.27026826
16	0xbf62fc41	-0.8866616
17	0x3e623ddd	0.22093911
18	0x3fe0c26c	1.7559333
19	0xbdf98544	-0.121836215
20	0x3f6b76b2	0.9197799
21	0x3f5b1e86	0.8559345
22	0xbe8285ad	-0.25492612
23	0x3edffdfd	0.43748465
24	0xbe9c7675	-0.30559126
25	0xbe89f9a9	-0.26948288
26	0x3f179825	0.5921653
27	0xbf1f6d22	-0.622759
28	0xbf67b516	-0.9051069
29	0x3ed586a0	0.41704273
30	0xbd87f997	-0.06639402
31	0x3ebf6c21	0.37387183

encoder_variable_selection.flattened_grn.fc1.bias f4 [2]
0	0xbe162abd	-0.14664741
1	0xbf25f4b9	-0.6482654

encoder_variable_selection.flattened_grn.context.weight f4 [2, 16]
0	0x3f1dd1a3	0.61648005
1	0xbdb07635	-0.08616296
2	0x3ee1acfa	0.44077283
3	0xbd3ec2a7	-0.046572354
4	0xbe065652	-0.13118866
5	0xbebe3d22	-0.37156016
6	0x3f4960b6	0.78663194
7	0x3f127a9d	0.57218343
8	0x3e9d6995	0.30744615
9	0x3f8ddef6	1.1083667
10	0x3e7f578b	0.24935739
11	0x3ee30c9c	0.44345558
12	0x3e9f6f43	0.31139573
13	0xbc307a0f	-0.010771289
14	0x3e9944d3	0.2993532
15	0x3ec8c5ee	0.39213508
16	0x3ef06076	0.46948594
17	0x3e8f982d	0.28045788
18	0x3f4ca144	0.7993357
19	0x3e2e545b	0.17024367
20	0x3ef0924f	0.46986625
21	0xbef90efb	-0.48644242
22	0x3d6d347f	0.057911392
23	0xbe558dc3	-0.20854859
24	0xbe1d4047	-0.15356551
25	0x3f462a53	0.7740833
26	0x3f0065ab	0.50155133
27	0x3f107d07	0.56440777
28	0x3efa9a1b	0.48945698
29	0xbeebf5cf	-0.46085975
30	0xbe0acae6	-0.13553962
31	0x3eb009d7	0.34382507

encoder_variable_selection.flattened_grn.fc2.weight f4 [2, 2]
0	0xbee9b5d1	-0.45646527
1	0x3d954524	0.07288578
2	0x3f097beb	0.5370471
3	0x3fc4126f	1.5318125

encoder_variable_selection.flattened_grn.fc2.bias f4 [2]
0	0xbd40e32d	-0.04709165
1	0xbf56d1fa	-0.8391415

encoder_variable_selection.flattened_grn.gate_norm.glu.fc.weight f4 [4, 2]
0	0xbf2df04d	-0.67944795
1	0x3f886f84	1.0659032
2	0xbe9e233c	-0.30886257
3	0xbddcd1ab	-0.107821785
4	0xbb8e9036	-0.0043506874
5	0xbf1fdb53	-0.6244404
6	0xbed1fef4	-0.41014826
7	0x3f782eac	0.96946216

encoder_variable_selection.flattened_grn.gate_norm.glu.fc.bias f4 [4]
0	0xbf840ffc	-1.0317378
1	0x3f5aad2b	0.85420483
2	0x3f263b53	0.6493427
3	0x3e5b0fc0	0.21392727

encoder_variable_selection.flattened_grn.gate_norm.add_norm.norm.weight f4 [2]
0	0x3f8c0e6f	1.0941905
1	0x3f8c0e4b	1.0941862

encoder_variable_selection.flattened_grn.gate_norm.add_norm.norm.bias f4 [2]
0	0xbfe990d8	-1.8247328
1	0x3fe99087	1.8247231

encoder_variable_selection.single_variable_grns.time_idx.resample_norm.mask f4 [16]
0	0x3dde7ee4	0.10864046
1	0x3e692c51	0.22770812
2	0x3e6b13f6	0.22956833
3	0xbe8828e8	-0.2659371
4	0xbe9b916b	-0.30384383
5	0xbdb61eb9	-0.08892579
6	0xbeaf460b	-0.34233126
7	0xbf04fd28	-0.51948786
8	0xbd59ddc0	-0.053189993
9	0xbecc8121	-0.39942268
10	0x3ecb9d0a	0.3976825
11	0x3efb6648	0.49101472
12	0xbd93b6c7	-0.072125964
13	0xbe81b5ef	-0.25334117
14	0xbf0cd424	-0.550112
15	0x3edbe47e	0.42947763

encoder_variable_selection.single_variable_grns.time_idx.resample_norm.norm.weight f4 [16]
0	0x3f989143	1.191933
1	0x3fb18535	1.3868777
2	0x3f9cd3a2	1.2252085
3	0x3f339747	0.70152706
4	0x3f2a09d0	0.6642122
5	0x3f9361a9	1.1514179
6	0x3f0965c1	0.5367089
7	0x3ef72a85	0.48274627
8	0x3f5ec155	0.8701375
9	0x3f623824	0.88366914
10	0x3f9efa2b	1.2420095
11	0x3fa70122	1.3047221
12	0x3f76c302	0.9639131
13	0x3f57d379	0.84307057
14	0x3f6d127d	0.92606336
15	0x3fcbe77f	1.5930022

encoder_variable_selection.single_variable_grns.time_idx.resample_norm.norm.bias f4 [16]
0	0xbd999817	-0.07499712
1	0x3f079827	0.5296654
2	0x3e34b91f	0.17648743
3	0xbd2ec84b	-0.042671483
4	0x3e1b80bf	0.15185831
5	0x3be12256	0.0068705482
6	0xbe91ae51	-0.28453305
7	0x3d97e9e1	0.07417656
8	0x3c8664c4	0.01640547
9	0x3cc3df14	0.023910083
10	0xbe2f0d1e	-0.17094848
11	0xbe500370	-0.20313811
12	0xbd336501	-0.043797497
13	0x3b20b85b	0.0024523947
14	0x3e26e937	0.16299902
15	0xbf221c05	-0.63324004

encoder_variable_selection.single_variable_grns.time_idx.fc1.weight f4 [8, 8]
0	0x3dc96006	0.09832768
1	0xbe12fbd8	-0.14353883
2	0xbdf66f40	-0.12032938
3	0xbf0b87ac	-0.54503894
4	0x3eca7719	0.3954399
5	0xbee0f071	-0.43933442
6	0xbef3f88e	-0.4765057
7	0x3dd6b873	0.104844
8	0xbecd7b58	-0.40133166
9	0xbf0489d0	-0.51772785
10	0xbe3ee751	-0.18642928
11	0xbf2ff0cf	-0.6872682
12	0x3ecabb03	0.39595804
13	0x3e7da780	0.24770927
14	0xbf4790bf	-0.7795524
15	0xbee359f0	-0.44404554
16	0x3edded11	0.4334493
17	0xbebb9e92	-0.36644417
18	0x3ef82271	0.48463777
19	0x3e7069b0	0.23477817
20	0x3f208157	0.62697357
21	0x3ebb154f	0.36539695
22	0xbf728b93	-0.94744223
23	0x3edacef2	0.42736012
24	0x3eed4fac	0.46349847
25	0x3f588335	0.84575206
26	0xbda797e1	-0.081832655
27	0x3fcbb46d	1.5914437
28	0xbf2f6a46	-0.68521535
29	0xbf092402	-0.5357057
30	0x3e4d464a	0.20046344
31	0xbee3a5b3	-0.44462356
32	0xbf122ab4	-0.5709641
33	0x3e26a9fe	0.16275784
34	0x3ed70923	0.41999158
35	0xbef2122d	-0.47279492
36	0x3f8144ae	1.0099084
37	0x3f2fbc61	0.6864682
38	0xbe447864	-0.1918655
39	0x3f1b2836	0.6060823
40	0xbeee210f	-0.46509597
41	0xbf5dd10c	-0.86647105
42	0xbdfed2e2	-0.124425665
43	0x3d6dbbb7	0.058040347
44	0x3f16a1d9	0.5884071
45	0xbf8d61c9	-1.1045467
46	0x3e32225f	0.17395924
47	0x3ee1c35f	0.4409437
48	0x3e9df940	0.30854225
49	0xbf1cf54f	-0.6131181
50	0x3f4f16d5	0.80894214
51	0xbe279e9c	-0.16369098
52	0x3f3e5e26	0.7436241
53	0x3d91ac3e	0.07112931
54	0x3e038ff3	0.12847881
55	0x3f7a579a	0.9778992
56	0x3eae3a31	0.34028772
57	0x3e9ed2ad	0.31020108
58	0x3dd2df51	0.102965005
59	0x3ea470a8	0.321172
60	0x3eab2dc0	0.33433342
61	0x3edf739e	0.43642896
62	0x3f3292ff	0.6975555
63	0x3e32bd4e	0.17455027

encoder_variable_selection.single_variable_grns.time_idx.fc1.bias f4 [8]
0	0xbe9c7212	-0.3055578
1	0xbdbd8ef8	-0.09255785
2	0xbe016ede	-0.12639949
3	0x3f1d08f2	0.61341774
4	0xbecd98fa	-0.40155774
5	0x3cd6899b	0.026188662
6	0xbe66b69d	-0.22530599
7	0x3db6a94c	0.089190096

encoder_variable_selection.single_variable_grns.time_idx.fc2.weight f4 [8, 8]
0	0x3f353df5	0.70797664
1	0x3e9ed420	0.31021214
2	0x3f860d40	1.0472794
3	0xbfdc3100	-1.7202454
4	0x3f4a3365	0.7898467
5	0x3ed3cce3	0.41367254
6	0x3f5e3148	0.8679395
7	0xbe7fc452	-0.24977234
8	0x3ecac45c	0.39602935
9	0x3f177102	0.5915681
10	0x3e88719a	0.2664917
11	0xbf793ff6	-0.9736322
12	0x3ef04af6	0.4693219
13	0xbec5bcdd	-0.38620654
14	0x3f68240e	0.90680015
15	0x3e08d088	0.13360798
16	0x3f429448	0.7600751
17	0x3f66e034	0.90185857
18	0x3fc4e19a	1.5381348
19	0xbfbc05c4	-1.468926
20	0x3fcbeb9f	1.5931281
21	0x3e94c9cc	0.2906021
22	0x3e3d4702	0.18484119
23	0x3db33b60	0.08751559
24	0x3ee84f71	0.4537311
25	0x3f1ac93e	0.6046332
26	0x3f5c59fe	0.8607482
27	0xbf1b8133	-0.6074402
28	0x3f0df48f	0.5545129
29	0xbd740910	-0.059578955
30	0x3f8c3869	1.0954715
31	0x3e4eb62d	0.20186682
32	0x3dc834a4	0.097756654
33	0x3d8cc98d	0.0687438
34	0xbf12d276	-0.5735239
35	0x3f4fdc4a	0.8119551
36	0xbf88102d	-1.0629936
37	0x3f7deb0f	0.99186796
38	0xbf231e9e	-0.63718593
39	0xbec1ed83	-0.3787652
40	0x3eed2c09	0.4632266
41	0x3fb3378b	1.4001325
42	0x3f15ea9d	0.58561116
43	0xbf643ea2	-0.8915807
44	0x3f82d285	1.0220495
45	0x3d1dc91e	0.03852188
46	0x3f467c8d	0.775338
47	0xbdcec4a7	-0.10096102
48	0xbf1de095	-0.6167081
49	0xbf4af3f7	-0.7927851
50	0xbe9f6340	-0.3113041
51	0x3f055d4f	0.520955
52	0xbd5d3534	-0.054005817
53	0xbeaa03ec	-0.33206117
54	0xbe425379	-0.18977155
55	0xbed7ba14	-0.42134154
56	0xbde39cc3	-0.11113884
57	0x3eb0714e	0.34461445
58	0x3d9b6cac	0.07589087
59	0xbfd8e102	-1.6943667
60	0x3b885078	0.0041599832
61	0xbeef0e09	-0.46690395
62	0x3fb09aed	1.379728
63	0xbcfa960c	-0.030589126

encoder_variable_selection.single_variable_grns.time_idx.fc2.bias f4 [8]
0	0xbf396164	-0.7241423
1	0xbec27c20	-0.37985325
2	0xbf3dc061	-0.7412167
3	0xbf30f77a	-0.6912762
4	0x3f29cb46	0.66325796
5	0xbee35517	-0.44400856
6	0x3e4446e3	0.19167666
7	0xbf1bc1d8	-0.6084266

encoder_variable_selection.single_variable_grns.time_idx.gate_norm.glu.fc.weight f4 [32, 8]
0	0x3eaef70c	0.34172857
1	0x3e22cdef	0.1589887
2	0xbf0d8ffa	-0.55297816
3	0x3ec57c74	0.38571513
4	0xbf04ef4a	-0.51927626
5	0xbdf82bfc	-0.12117764
6	0x3eba8d38	0.36435866
7	0x3e54e74d	0.20791359
8	0xc046a16f	-3.1036031
9	0xbffabd9b	-1.9589113
10	0xc04395d1	-3.056019
11	0xbfb9daae	-1.4519861
12	0x3feafd4e	1.8358552
13	0xc007c918	-2.1216488
14	0x40157140	2.3350372
15	0xbfd75aee	-1.6824625
16	0x3f1ac066	0.60449827
17	0xbf02982b	-0.5101344
18	0xbe61a4a2	-0.22035459
19	0xbf3d351f	-0.7390918
20	0x3e8dd841	0.2770405
21	0x3d00fc46	0.031490587
22	0x3e784e98	0.24248731
23	0x3d358a76	0.0443215
24	0x3e99a222	0.3000651
25	0x3ea199e0	0.3156271
26	0xbed9d945	-0.42548576
27	0x3da7ccdd	0.081933714
28	0xbe82bd9c	-0.25535285
29	0xbef546ec	-0.47905672
30	0xbe94d507	-0.29068777
31	0x3df53473	0.119728945
32	0x3c13ae49	0.009013721
33	0x3e1bc758	0.15212762
34	0xbd50dc32	-0.050991245
35	0xbd8e116e	-0.06936918
36	0x3ce61c63	0.028089708
37	0x3d1b7593	0.037953924
38	0xbeb130a8	-0.34607434
39	0x3e835234	0.25648654
40	0xbf41bc5c	-0.7567804
41	0xbd249c25	-0.040187974
42	0x3b8cdf19	0.0042990563
43	0xbee5edfa	-0.44908124
44	0x3e1baa14	0.15201598
45	0x3e2825a8	0.16420615
46	0xbda1d286	-0.07901482
47	0xbda9edce	-0.08297311
48	0xbc2714f2	-0.010197865
49	0x3e8da244	0.2766286
50	0xbec6aefa	-0.38805372
51	0x3e6b0466	0.22950897
52	0x3d62bf14	0.055358008
53	0x3e624fcf	0.22100757
54	0x3db0a21e	0.086246714
55	0x3e60debf	0.21959971
56	0xbe310215	-0.1728595
57	0x3d9ef839	0.077621885
58	0xbe08921a	-0.13336983
59	0x3e83c6d3	0.25737628
60	0xbebc5fb7	-0.36791775
61	0x3e236f79	0.15960492
62	0xbdc726ca	-0.09724195
63	0xbe2419a2	-0.16025403
64	0xbe1ddcc1	-0.15416242
65	0x3cefbf98	0.029266164
66	0x3e7207d6	0.23635802
67	0x3f0993c7	0.53741115
68	0xbe7e5c0b	-0.24839799
69	0xbec8391c	-0.3910607
70	0x3e003dbe	0.12523553
71	0x3e85bf0c	0.2612232
72	0xbde2ae4d	-0.110684015
73	0x3c8de0d4	0.01731912
74	0xbdd2aef3	-0.10287275
75	0xbf11ae66	-0.56906736
76	0x3d359bdc	0.044338092
77	0xbcb7d9f6	-0.022442799
78	0xbea2b896	-0.31781453
79	0x3dd1fd3f	0.10253381
80	0x3f99d403	1.2017826
81	0x3de9882b	0.11402925
82	0xbf80b275	-1.0054461
83	0xbcc81791	-0.0244253
84	0xbebd720d	-0.37001076
85	0xbdd19a06	-0.10234456
86	0xbdb53fdb	-0.0885007
87	0xbf25dfb9	-0.647945
88	0x3e4c7206	0.19965371
89	0x3e8dce03	0.27696237
90	0xbd64452c	-0.05573003
91	0x3da4cb5a	0.08046599
92	0x3e23f99f	0.16013192
93	0xbdbd918d	-0.09256277
94	0x3e220c2b	0.15824954
95	0xbdcf1e72	-0.10113229
96	0xbec7ad87	-0.38999578
97	0xbeb32935	-0.34992376
98	0xbe60126b	-0.21882026
99	0xbe9b6ee1	-0.3035803
100	0x3e81b7aa	0.25335437
101	0xbec00dc1	-0.37510493
102	0x3e67b03f	0.22625826
103	0xbdd828c0	-0.105546474
104	0x3daab5ca	0.08335455
105	0xbe5f7043	-0.21820168
106	0x3e7277bb	0.23678486
107	0x3ddb5c58	0.107109725
108	0x3c68e031	0.014213608
109	0xbea38c3b	-0.31942925
110	0xbe6ecdf8	-0.23320758
111	0x3d86b0fe	0.06576727
112	0xbe01b964	-0.12668377
113	0x3daab92b	0.08336099
114	0xbdf5be18	-0.11999148
115	0xbd97eb49	-0.07417924
116	0x3ea7a69f	0.3274431
117	0x3eaeb40e	0.34121746
118	0xbda22874	-0.07917872
119	0xbe585c8a	-0.21129051
120	0x40217253	2.5226028
121	0x4027145d	2.6106179
122	0xbdbc566b	-0.091961704
123	0x4033fa3e	2.8121486
124	0xbfed3639	-1.8532172
125	0x3fd385c5	1.6525198
126	0xbfbb2230	-1.4619808
127	0x4027a535	2.6194584
128	0xbf56e904	-0.83949304
129	0xbee7fe9d	-0.45311442
130	0xbf2262f2	-0.6343223
131	0x3dff77eb	0.124740444
132	0x3f43773d	0.7635382
133	0xbf7a22bf	-0.9770927
134	0x3f8b29a2	1.087208
135	0xbf6740da	-0.9033333
136	0xbf5dfe90	-0.86716557
137	0xbf801eba	-1.0009377
138	0x3d5c1646	0.05373218
139	0xbf0ad91b	-0.54237527
140	0x3f8665dd	1.0499836
141	0xbecf29f2	-0.4046169
142	0x3f938010	1.1523457
143	0xbf2c16af	-0.6722211
144	0xbf1654d9	-0.5872322
145	0xbf81ae09	-1.0131236
146	0xbe6eb206	-0.23310098
147	0xbf025fc4	-0.50927377
148	0x3f2f705e	0.68530834
149	0xbe831341	-0.25600627
150	0x3ebb2830	0.36554098
151	0xbf06cfb8	-0.52660704
152	0xbeb432d7	-0.35195038
153	0xbf473738	-0.7781863
154	0xbee3774d	-0.44426957
155	0xbec54e2c	-0.38536203
156	0x3e3583f6	0.1772612
157	0xbe9e725c	-0.30946624
158	0xbef57370	-0.47939634
159	0xbefe8ce0	-0.49716854
160	0x3f447324	0.7673819
161	0x3ea8ad09	0.32944515
162	0xbe85d6bb	-0.2614039
163	0x3ebf3e6c	0.37352312
164	0xbf1e9b72	-0.6195594
165	0x3f16e85d	0.5894831
166	0x3d80eca6	0.06295137
167	0x3efea5fd	0.49736014
168	0x3fb0e16a	1.3818791
169	0x3e37a89f	0.17935418
170	0x3f01ac20	0.50653267
171	0x3f1b558e	0.6067742
172	0xbf1d3184	-0.6140368
173	0x3fe098d8	1.7546644
174	0x3eaf5dd8	0.34251285
175	0x3ece98dd	0.40351
176	0x3ee44411	0.4458318
177	0x3e244792	0.16042927
178	0xbce2f604	-0.0277052
179	0x3f270663	0.6524412
180	0xbec33ea7	-0.38133737
181	0x3ce0cf75	0.027442673
182	0xbe83d9ec	-0.257522
183	0x3e243d00	0.16038895
184	0x3df09134	0.11746445
185	0x3e503a89	0.2033483
186	0x3e8c5006	0.27404803
187	0x3f1e0ed7	0.61741394
188	0xbf3427b5	-0.7037309
189	0x3c6ce40f	0.01445867
190	0xbf8093f0	-1.0045147
191	0x3e953133	0.291391
192	0x3ea02bd9	0.31283453
193	0x3e92bc25	0.28659168
194	0x3f1f59d3	0.62246436
195	0x3f5755ac	0.841151
196	0xbecc4964	-0.39899743
197	0x3f06dfad	0.5268505
198	0x3d4f2d62	0.05058039
199	0x3b633a01	0.0034672024
200	0x3f01ce2a	0.50705206
201	0x3e242460	0.16029501
202	0xbde9e736	-0.11421053
203	0x3f04bb6b	0.5184848
204	0xbf08b294	-0.5339749
205	0x3f3c6a2e	0.7359952
206	0xbf10fe10	-0.5663767
207	0x3ed5a91e	0.4173059
208	0xbf451d5d	-0.7699793
209	0xbee50d31	-0.44736627
210	0xbe180023	-0.14843802
211	0xbf54ee86	-0.8317646
212	0x3f064d27	0.52461475
213	0xbf075093	-0.5285732
214	0x3f0c200b	0.54736394
215	0xbe05945a	-0.13044873
216	0x3ef4cb90	0.47811556
217	0x3ef55393	0.47915325
218	0xbe7462be	-0.23865792
219	0x3f3b3b5b	0.73137444
220	0xbf202f4b	-0.62572163
221	0x3f1ebe6b	0.62009305
222	0xbee6af37	-0.45055553
223	0xbe32e6e2	-0.17470887
224	0x3ea94cd2	0.33066422
225	0x3f1cee7c	0.613014
226	0xbca05a76	-0.019574385
227	0x3e62f1d5	0.22162564
228	0xbe48e842	-0.1961985
229	0x3eecf3c7	0.46279737
230	0xbe56f376	-0.2099131
231	0x3eefe242	0.4685231
232	0x3e85b8bd	0.26117507
233	0x3e70ac84	0.2350331
234	0x3e0e3d17	0.13890491
235	0x3f677946	0.90419424
236	0xbf192c37	-0.5983309
237	0x3dfc5db7	0.12322562
238	0x3e0be125	0.13660105
239	0x3c9b851d	0.018984372
240	0x3eb9d138	0.36292434
241	0x3f14d248	0.58133364
242	0xba2964a4	-0.0006461835
243	0x3ea85c6a	0.32883006
244	0xbec6592a	-0.38739902
245	0x3eb60ddc	0.3555745
246	0xbecfde48	-0.40599275
247	0x3edd2349	0.43190983
248	0xbeb3212e	-0.34986252
249	0xbf1c43e8	-0.61041117
250	0xbe985f62	-0.2976027
251	0xbe58c759	-0.21169795
252	0x3f4068e0	0.75160027
253	0xbdd6dcd4	-0.10491338
254	0x3f86f24d	1.0542694
255	0xbee93806	-0.45550555

encoder_variable_selection.single_variable_grns.time_idx.gate_norm.glu.fc.bias f4 [32]
0	0xbd9c1ed8	-0.076230705
1	0x3f89605f	1.0732535
2	0x3e87ccd5	0.26523462
3	0xbc719802	-0.014745714
4	0x3ce2c7ef	0.027683226
5	0x3d9cfb2a	0.07665093
6	0xbddf49f7	-0.109027795
7	0xbe795571	-0.24349
8	0x3de5ab9b	0.11214372
9	0x3d87604a	0.066101626
10	0xbe5cf064	-0.21576077
11	0xbde34172	-0.11096467
12	0x3c03c408	0.008042343
13	0x3c2ebcd8	0.010665141
14	0x3cd8815f	0.026428876
15	0xbf8c6eb2	-1.0971282
16	0xbdd5649f	-0.104195826
17	0xbc7ad2e7	-0.015309072
18	0x3b60b01d	0.003428466
19	0xbdef2d7d	-0.11678598
20	0xbeaff084	-0.34363186
21	0xbf21d69b	-0.63218087
22	0xbe4ee84b	-0.202058
23	0xbdc5561d	-0.096355654
24	0xbeefd8af	-0.46845004
25	0xbead0b7f	-0.33797833
26	0x3dd7eb50	0.10542929
27	0xbecf760c	-0.4051975
28	0xbe001311	-0.12507273
29	0xbeceb415	-0.40371767
30	0xbe41f215	-0.18940003
31	0xbc95a2e2	-0.018266145

encoder_variable_selection.single_variable_grns.time_idx.gate_norm.add_norm.norm.weight f4 [16]
0	0xbde71590	-0.112834096
1	0x3e4ee7fc	0.20205683
2	0x3e07cfef	0.13262914
3	0xbafc2a94	-0.0019238763
4	0xbe7ebfd2	-0.24877861
5	0xbd5e7b9f	-0.054317113
6	0x3ee88824	0.45416367
7	0x3eb71f69	0.35766152
8	0x3ec35d7b	0.38157257
9	0x3eae2af3	0.34017143
10	0xbe8cd7c4	-0.27508366
11	0x3e80e333	0.2517334
12	0x3ebfd38b	0.37466082
13	0x3e5ccff2	0.215637
14	0x3e6747fc	0.22586054
15	0x3dc816e7	0.09769993

encoder_variable_selection.single_variable_grns.time_idx.gate_norm.add_norm.norm.bias f4 [16]
0	0xbf1369c7	-0.5758328
1	0xbe541f84	-0.20715147
2	0xbd6dbf80	-0.058043957
3	0xbe860343	-0.26174363
4	0x3efc6b2c	0.49300516
5	0xbd71921e	-0.05897724
6	0xbbe86ca2	-0.007093028
7	0xbf68ae9f	-0.9089145
8	0x3ea2b960	0.31782055
9	0x3e8f6002	0.28002936
10	0x3ecb86fb	0.3975142
11	0xbe633be5	-0.22190817
12	0xbda85fe1	-0.082214125
13	0xbe3daa0f	-0.18521903
14	0xbd60b78b	-0.05486254
15	0x3ef21e88	0.47288918

encoder_variable_selection.single_variable_grns.value.resample_norm.mask f4 [16]
0	0xc0094b10	-2.1452065
1	0xbfe82610	-1.8136616
2	0xc001fa28	-2.0308933
3	0xbf73d5fe	-0.952484
4	0x40565827	3.3491304
5	0xc09e1a3d	-4.940703
6	0xc08861ad	-4.2619233
7	0x40104608	2.2542744
8	0xc00acbc2	-2.1686864
9	0x3fa25bac	1.2684226
10	0xc036ee91	-2.858311
11	0xbffd509e	-1.9790227
12	0xbf95bee2	-1.1698878
13	0xbd32202e	-0.04348772
14	0x3e25a3c7	0.16175757
15	0xbfb96282	-1.4483187

encoder_variable_selection.single_variable_grns.value.resample_norm.norm.weight f4 [16]
0	0x3feb45dc	1.8380694
1	0x4041626d	3.0216324
2	0x3f97d2a9	1.1861163
3	0x40107d20	2.257637
4	0x40b5be46	5.6794767
5	0x3fd5e7f4	1.6711411
6	0x40203ad2	2.50359
7	0x40555e31	3.333874
8	0x3fb1341e	1.384403
9	0x40377f97	2.8671625
10	0x3f490b3c	0.7853277
11	0x3fd702ae	1.6797693
12	0x3f390d42	0.72285855
13	0x400af021	2.1709063
14	0x4001996b	2.024989
15	0x3f8e526d	1.1118904

encoder_variable_selection.single_variable_grns.value.resample_norm.norm.bias f4 [16]
0	0x3e87d390	0.26528597
1	0x3f060366	0.52348936
2	0x3ef56002	0.4792481
3	0x3e992924	0.299142
4	0x3f436a64	0.76334214
5	0x3edcee57	0.4315059
6	0x3daa62f8	0.08319658
7	0xbf89bdac	-1.0761008
8	0xbbddb3eb	-0.0067658327
9	0x3f0ee529	0.5581842
10	0x3e690862	0.22757104
11	0x3d541933	0.051781844
12	0x3eefd2a0	0.46840382
13	0x3f5fd6d8	0.874372
14	0x3e6d23c4	0.23158175
15	0x3ed14a6b	0.4087709

encoder_variable_selection.single_variable_grns.value.fc1.weight f4 [8, 8]
0	0xbd6a839e	-0.057254426
1	0x3efab88a	0.48968917
2	0x3e9dabf1	0.30795243
3	0xbf9cdea9	-1.225545
4	0xbfc8b97a	-1.5681603
5	0xbe8b7223	-0.27235517
6	0xbf2702b5	-0.65238506
7	0xbdc81440	-0.097694874
8	0xbf9dbd94	-1.232348
9	0x3f03a061	0.51416594
10	0x3f968bc9	1.1761409
11	0xbeb1801a	-0.34668046
12	0xbfd41dcd	-1.6571594
13	0xbed8e633	-0.42363128
14	0xbed961f0	-0.42457533
15	0xbf2ef207	-0.68338054
16	0xbfa442b3	-1.2832855
17	0xbe5c6e06	-0.21526346
18	0x3f8717d0	1.0554142
19	0xbf0ee9d5	-0.5582555
20	0xbfb3b114	-1.4038415
21	0x3e77d3cf	0.24201892
22	0xbecc729f	-0.399312
23	0x3ea3cebe	0.3199367
24	0xc0178415	-2.3674366
25	0xbee5a656	-0.44853467
26	0x3f733111	0.94996744
27	0xbf6c279f	-0.92247957
28	0xc003b703	-2.0580451
29	0x400499ab	2.0718791
30	0x3f4c1b8e	0.79729545
31	0x3e651884	0.22372633
32	0xbf0350bd	-0.5129507
33	0x3ce35de4	0.027754731
34	0x3f388a4a	0.7208601
35	0xbe2538db	-0.1613497
36	0xbfb413b5	-1.4068514
37	0xbf14e427	-0.5816063
38	0xbe02ff78	-0.12792766
39	0xbf4c432d	-0.7979
40	0xbf00c74a	-0.5030409
41	0x3f2ceb68	0.675467
42	0x3f3c5e23	0.7358114
43	0xbf99ae4d	-1.2006317
44	0xbff378ad	-1.9021202
45	0x3dfa77ec	0.122299045
46	0xbee54d73	-0.44785652
47	0x3e1dcf5e	0.15411136
48	0xbfb75d76	-1.4325397
49	0x3e5d7d74	0.21629888
50	0x3fc02a32	1.5012877
51	0xbf4956ea	-0.78648245
52	0xbf9af2bc	-1.2105327
53	0x3ecd3e12	0.40086418
54	0xbea74a37	-0.3267381
55	0xbe799566	-0.24373397
56	0xc024c77e	-2.574676
57	0x3f1cb3b2	0.61211693
58	0x40392f15	2.8934987
59	0xbfb2e846	-1.3977134
60	0xbf18438d	-0.59478074
61	0x3ed34716	0.41265172
62	0xbf33ce0e	-0.7023629
63	0xbe9e685a	-0.3093899

encoder_variable_selection.single_variable_grns.value.fc1.bias f4 [8]
0	0xbf32d988	-0.69863176
1	0xbff9db2a	-1.9520009
2	0xbf7dade3	-0.99093455
3	0xc016f617	-2.3587701
4	0xbfca1e42	-1.5790484
5	0xbfd98609	-1.6994029
6	0xbf82ba95	-1.021319
7	0xbf9eb03c	-1.2397532

encoder_variable_selection.single_variable_grns.value.fc2.weight f4 [8, 8]
0	0x3f145783	0.5794603
1	0xbea089b4	-0.3135506
2	0x3ee0aacc	0.43880308
3	0xbf75bfb2	-0.9599563
4	0xbfc44c39	-1.5335761
5	0xbdb1d98c	-0.08684072
6	0x3e7495d6	0.23885283
7	0x3fd40d8e	1.6566637
8	0x3fb0cb40	1.3812027
9	0x3ed08d83	0.40732965
10	0x3f818635	1.0119082
11	0xbe345c90	-0.17613435
12	0xbf319ba0	-0.6937809
13	0x3f96d2d0	1.1783085
14	0x3fc0e460	1.5069695
15	0x4001da90	2.028965
16	0x3d16528d	0.03669982
17	0x3eda23ed	0.42605534
18	0xbf0eaf68	-0.557364
19	0xbf03b6b7	-0.51450676
20	0xbf662b7c	-0.899101
21	0xbef95292	-0.4869581
22	0xbd61290c	-0.054970786
23	0xbf985e32	-1.1903746
24	0xbf69837d	-0.9121626
25	0x3e82eef1	0.25572923
26	0x3ec61da2	0.38694483
27	0x3eb1461b	0.346238
28	0x3ec16a18	0.37776256
29	0x3f8041ec	1.0020118
30	0xbcca7328	-0.024713114
31	0x3f201862	0.62537205
32	0xbf6e5e94	-0.93113065
33	0x3f08a5f7	0.5337824
34	0xbf89e33a	-1.0772469
35	0x40056b94	2.084691
36	0xbfc1365f	-1.5094718
37	0x3f80897a	1.0041955
38	0x3c67a4e8	0.014138438
39	0xbfeac863	-1.8342403
40	0xbfe6c9d3	-1.8030342
41	0xbfb89499	-1.4420348
42	0xbfe81cb3	-1.8133758
43	0xbe4fe2cb	-0.20301358
44	0x3f659695	0.89682895
45	0xbf318321	-0.6934071
46	0xc02156f5	-2.5209324
47	0xc039cbb9	-2.9030592
48	0xbfdc05a7	-1.7189225
49	0xbf8e6556	-1.1124675
50	0xbfdf5d55	-1.7450358
51	0x3e20c034	0.1569832
52	0x3ec632bb	0.3871058
53	0xbfa474c7	-1.2848138
54	0xbfc7eb17	-1.5618619
55	0xbffa728c	-1.9566207
56	0x3fb1e773	1.3898758
57	0x3e3079c6	0.17233953
58	0x3fae45e7	1.3615083
59	0x3d241382	0.040057667
60	0xbeb1d434	-0.3473221
61	0x3ffd7954	1.9802651
62	0x3feabeaa	1.8339436
63	0x4002a276	2.0411658

encoder_variable_selection.single_variable_grns.value.fc2.bias f4 [8]
0	0xbf33b0a7	-0.70191425
1	0xbfd32ed0	-1.6498661
2	0x3eeb4454	0.45950568
3	0xbe905a9b	-0.28194126
4	0x3fb6c249	1.4278041
5	0x400cd782	2.2006536
6	0x3ff87a93	1.9412407
7	0xbfbc4ee7	-1.4711579

encoder_variable_selection.single_variable_grns.value.gate_norm.glu.fc.weight f4 [32, 8]
0	0xbf34af65	-0.7058013
1	0xbeb8bd6d	-0.3608202
2	0x3ea9f57d	0.33195105
3	0xbf811e63	-1.0087398
4	0x3e458405	0.19288643
5	0x3f978b30	1.1839352
6	0xbeb45474	-0.35220683
7	0x3f85964c	1.0436492
8	0xbfc2d7f7	-1.5222157
9	0xbf6329e7	-0.8873581
10	0xbdafae4b	-0.085781656
11	0xbf94ab3c	-1.1614757
12	0xbefb20ab	-0.4904836
13	0xbe5f4194	-0.2180236
14	0x3f01b21f	0.50662416
15	0x3f24172d	0.64097863
16	0x3eaab173	0.33338508
17	0xbf25c5a6	-0.6475471
18	0xbe24769b	-0.1606087
19	0x3f6fed57	0.93721527
20	0xbf5d2730	-0.8638792
21	0xbddb4976	-0.10707371
22	0x3fb70354	1.4297891
23	0x3f6a5ebf	0.9155082
24	0x3f0a78a2	0.5409032
25	0x3ecc83d5	0.3994433
26	0x3e50ad9c	0.20378727
27	0xbeb423db	-0.35183606
28	0xbf1fec80	-0.62470245
29	0xbf020086	-0.5078205
30	0x3ee22c03	0.44174203
31	0x3f24edcf	0.6442537
32	0x3dd80c19	0.105491824
33	0x3f8e3736	1.1110599
34	0xbec1b79b	-0.37835392
35	0x3eb1f6b5	0.34758535
36	0x3f869d88	1.0516825
37	0xbe1493af	-0.14509462
38	0xbf28e71c	-0.65977645
39	0xbe7e4e5f	-0.24834584
40	0x3e34653b	0.17616741
41	0xbe0a89b6	-0.13529095
42	0x3fa89579	1.3170615
43	0x3e997a5c	0.29976165
44	0x3f4a0457	0.7891287
45	0x3c9c4039	0.019073592
46	0x3f8a7593	1.0817131
47	0x3ec86115	0.39136568
48	0xbf4eb67d	-0.80747205
49	0xbe8e730c	-0.2782215
50	0x3e0b0a50	0.13578153
51	0xbee2f485	-0.4432718
52	0x3ed2668d	0.41093865
53	0x3f3b0b22	0.7306386
54	0xbdb32f63	-0.08749273
55	0xbd8d8fa5	-0.06912164
56	0x3eea3f46	0.457514
57	0xbf05bd52	-0.52242005
58	0x3d032899	0.03202114
59	0xbd6c788b	-0.057732146
60	0xbfea8ff9	-1.8325187
61	0xbf92817a	-1.1445763
62	0xbe02c6ca	-0.12771145
63	0xbf00b75b	-0.5027978
64	0xbfb4fdbd	-1.4139935
65	0xc0133d74	-2.3006258
66	0x3fa692a4	1.3013501
67	0x3ed7949b	0.42105564
68	0x3fa85556	1.3151042
69	0x3fe61af5	1.7976977
70	0x3e3e68e8	0.18594706
71	0x3ee1d989	0.4411128
72	0x3defa511	0.11701406
73	0xbd87b891	-0.06627
74	0xbc84927b	-0.016183129
75	0x3dc8def5	0.09808151
76	0xbf5fdd5b	-0.87447137
77	0x3d011b6d	0.031520296
78	0xbd6d982e	-0.058006458
79	0x3f2edeaf	0.6830854
80	0xbf8d2dc9	-1.1029598
81	0xbf683228	-0.9070153
82	0x3f935fc1	1.1513597
83	0xbf341d9b	-0.70357674
84	0x3e191263	0.1494842
85	0x3f43751c	0.7635057
86	0x3c566683	0.013085964
87	0x3effd82f	0.49969622
88	0xbf1c2177	-0.60988563
89	0xbef488d1	-0.47760633
90	0xbf1330c7	-0.57496303
91	0x3ed3a928	0.41339993
92	0xbee9f27c	-0.45692813
93	0xbdfa2a6e	-0.12215124
94	0x3e70e5ae	0.23525116
95	0xbec61c0c	-0.38693273
96	0xbf313497	-0.6922087
97	0x3dc978f1	0.09837521
98	0xbfe96160	-1.8232841
99	0x3f2a9889	0.66639
100	0xbfa9d49c	-1.3268008
101	0x3dcdc4be	0.10047291
102	0x3ebda6e9	0.37041405
103	0x3e1ee112	0.15515545
104	0x3c0c54f4	0.008565176
105	0x3e898e30	0.26866293
106	0xbf9218c7	-1.1413811
107	0x3fa4cca4	1.2874951
108	0x3e8c4244	0.27394307
109	0x3f5aaac0	0.85416794
110	0xbf25e033	-0.64795226
111	0xbe2330bf	-0.15936564
112	0xbf89a77b	-1.0754236
113	0xbfc87348	-1.5660181
114	0x3f24ede3	0.64425486
115	0xbe8cc6f7	-0.27495548
116	0xbf00df6e	-0.50340927
117	0x3e01521c	0.12628978
118	0xbe69985d	-0.22812028
119	0x3fa34cbd	1.2757794
120	0xbfe8b016	-1.8178737
121	0xbf7d161c	-0.9886186
122	0xbf460182	-0.7734605
123	0x3fcf552b	1.6197866
124	0xbf218463	-0.6309263
125	0x3f8a7bae	1.0818994
126	0x3eb33517	0.35001442
127	0x3f63ff95	0.8906186
128	0x3f2ca9a9	0.6744638
129	0x3f735741	0.95055014
130	0xbf8ab320	-1.0835915
131	0x3fd44bf4	1.6585679
132	0xbf267667	-0.6502442
133	0xbfb81a9f	-1.4383124
134	0xbf2e4e09	-0.6808782
135	0x3f56ff2a	0.839831
136	0x3fb521e4	1.4150968
137	0x3f247501	0.64241034
138	0x3ec03850	0.37542963
139	0x402c80f4	2.6953707
140	0xbf2ab1db	-0.66677636
141	0xbf9f52eb	-1.244718
142	0xbf4dd34a	-0.80400527
143	0x3ffc90d3	1.9731697
144	0x3f5c0002	0.8593751
145	0x3eee290a	0.46515685
146	0xbf80add7	-1.0053052
147	0x3fc9d060	1.5766716
148	0xbf1bcbba	-0.6085774
149	0xbfd92a77	-1.6966084
150	0xbf667efe	-0.90037525
151	0x3fca7909	1.5818187
152	0x3f33097d	0.6993635
153	0x3efe638c	0.49685323
154	0xbf3abd09	-0.72944695
155	0x3efe57f4	0.49676478
156	0xbfe08af9	-1.7542411
157	0xbfd2745a	-1.6441758
158	0xbf18d334	-0.5969727
159	0x3fa17166	1.2612731
160	0x3fe53a28	1.7908373
161	0x3fef9811	1.8718282
162	0xbe90d32b	-0.28286108
163	0x3fb0d1e7	1.3814057
164	0xbef56f4c	-0.47936475
165	0xbfb69859	-1.4265243
166	0xbfb63b18	-1.4236784
167	0x3f356ad6	0.70866144
168	0xbf027c6f	-0.5097112
169	0x3f6002fc	0.87504554
170	0xbfa4f4bb	-1.2887186
171	0x3fc0f1b5	1.5073763
172	0xbd0f6e5b	-0.035017353
173	0xbfa19993	-1.2624992
174	0xbf883dfe	-1.0643919
175	0x3fd7db82	1.6863863
176	0x3f998fe6	1.1997039
177	0x4019b5ed	2.4017289
178	0xbfddf623	-1.734074
179	0x3ef1500b	0.4713138
180	0xbf9b7ae2	-1.2146876
181	0xc00eba58	-2.2301235
182	0xbf07f221	-0.53103834
183	0x3ebe35f9	0.37150553
184	0x3fbff5ea	1.4996922
185	0x403262ba	2.7872758
186	0xbf1f4ae5	-0.62223655
187	0xbd8183d0	-0.06323969
188	0xbfb9bbf2	-1.4510481
189	0xc00230ef	-2.0342367
190	0xbf847408	-1.034791
191	0x3f1dff62	0.6171781
192	0x3f0094c8	0.5022702
193	0x3fff2ce6	1.9935577
194	0xbf9e55a0	-1.2369881
195	0x3fc6cd93	1.5531486
196	0xbedbaafa	-0.42903882
197	0xbfdd71a0	-1.7300301
198	0xbf059d25	-0.5219291
199	0x3f0c1e1a	0.5473343
200	0x3e66b865	0.22531278
201	0x3f7fefb1	0.99975115
202	0x3eb525bb	0.3538035
203	0x3fe6a55b	1.8019212
204	0xbe962120	-0.29322147
205	0xbfaa16b6	-1.3288181
206	0xc00d217c	-2.2051687
207	0x3fd1a545	1.6378561
208	0x3dd564f9	0.1041965
209	0x3ef8a79d	0.4856538
210	0xc01be3c2	-2.4357762
211	0x401a49df	2.4107587
212	0xbfb82ff2	-1.4389632
213	0xc017523f	-2.364395
214	0xbeb9269e	-0.36162275
215	0x3f02ebf6	0.511413
216	0x3f8c1918	1.0945158
217	0x3f2f497d	0.6847151
218	0xbee7b5e2	-0.45255953
219	0x3f498412	0.7871715
220	0xbf37290a	-0.71546996
221	0xbf879ddf	-1.0595053
222	0xbe691e4e	-0.22765467
223	0x3f426072	0.75928414
224	0xbdeeeebf	-0.11666631
225	0x3f6e3b6d	0.93059427
226	0xbdf8c2eb	-0.12146553
227	0x3fcf1cb4	1.6180634
228	0xbfccc00f	-1.5996112
229	0xbfb2668e	-1.3937547
230	0xbf910039	-1.1328193
231	0x400cd69a	2.2005982
232	0x3f51fbd8	0.8202491
233	0x3f3766e0	0.7164135
234	0xbf541be5	-0.82855064
235	0x3ef1b22d	0.4720625
236	0xbec877ad	-0.39153805
237	0xbfc37417	-1.5269803
238	0xbf05a665	-0.5220702
239	0x40016e55	2.0223591
240	0xbed9f45f	-0.42569253
241	0x3f1192b2	0.56864464
242	0xbf3ee361	-0.745657
243	0x4027120a	2.610476
244	0xbd9fa63e	-0.0779538
245	0xbf62acf8	-0.8854518
246	0xc02a10ee	-2.6572833
247	0x40379cf9	2.8689559
248	0x3f22422f	0.6338224
249	0x3f692fcd	0.91088563
250	0xbf9028de	-1.1262472
251	0x401a3afd	2.4098504
252	0xc0188825	-2.3833096
253	0xc02ac1ab	-2.6680706
254	0xbf669df7	-0.90084785
255	0x3ff50c72	1.9144423

encoder_variable_selection.single_variable_grns.value.gate_norm.glu.fc.bias f4 [32]
0	0x3e0c35cc	0.13692397
1	0xbff4229c	-1.9073062
2	0xbe167dcf	-0.1469643
3	0x3ee5f95f	0.44916818
4	0x3fcc8016	1.5976589
5	0xbfd20aa6	-1.64095
6	0x3effe0c1	0.4997616
7	0xbf69aa26	-0.9127525
8	0x3f837206	1.0269172
9	0xc0022650	-2.0335884
10	0xbcf1bdd2	-0.029509459
11	0x3eba1ae8	0.36348653
12	0xbf908590	-1.129076
13	0x3ecb0461	0.39651778
14	0xbf6618ca	-0.89881575
15	0xbed1665f	-0.40898415
16	0xbf55309f	-0.83277315
17	0xc048ac6a	-3.1355233
18	0xbfc5a9f7	-1.5442494
19	0xbf8f5626	-1.1198165
20	0xc010e98a	-2.264254
21	0xc02242a9	-2.5353186
22	0xc00fc61d	-2.2464669
23	0xc02f64ee	-2.7405353
24	0xc0ace946	-5.4034758
25	0xc00cfbf2	-2.2028775
26	0xc052c40a	-3.2932153
27	0xc022b70a	-2.5424218
28	0xc00b3e7c	-2.1756887
29	0xc01c8c77	-2.4460733
30	0xc057c24f	-3.3712347
31	0xc01f2476	-2.4866004

encoder_variable_selection.single_variable_grns.value.gate_norm.add_norm.norm.weight f4 [16]
0	0x3d87513a	0.066072896
1	0xbd458c37	-0.048229422
2	0xbd8d41f5	-0.06897346
3	0x3ecf4955	0.40485635
4	0x3f862503	1.0480045
5	0x3e5834c9	0.21113886
6	0xbe8211a6	-0.2540409
7	0x3fbd82f9	1.4805595
8	0xbe50e8a9	-0.20401253
9	0x3edd46be	0.43218035
10	0x3e0ecd7c	0.13945574
11	0xbc1e860a	-0.009675512
12	0xbb8f763e	-0.0043781092
13	0x3e36ee36	0.17864308
14	0x3f267ff7	0.6503901
15	0x3cdce614	0.026965179

encoder_variable_selection.single_variable_grns.value.gate_norm.add_norm.norm.bias f4 [16]
0	0xba048f12	-0.00050567195
1	0xbd532a48	-0.051553994
2	0xbca23a8c	-0.019803308
3	0x3cce935b	0.025216749
4	0x3fd6b828	1.677495
5	0x3a24285a	0.00062621164
6	0xbd55b23e	-0.052171938
7	0xbf9c1ef0	-1.2196941
8	0xbd207aa4	-0.03917946
9	0xbe96a29c	-0.29420936
10	0xbd66083b	-0.056160193
11	0xbccd13a6	-0.025033783
12	0x3c4b3e2f	0.012404962
13	0xbd8d5f03	-0.06902888
14	0xbd0041ed	-0.03131287
15	0x3cf5a5d2	0.029986296

encoder_variable_selection.prescalers.time_idx.weight f4 [8, 1]
0	0x3f8479c6	1.0349662
1	0xbdf6a02b	-0.12042268
2	0x3d6776f6	0.056509934
3	0xbe47fc8b	-0.19529931
4	0xbd820397	-0.06348341
5	0x3f9436c1	1.157921
6	0x3e3e5da7	0.18590413
7	0xbf0e11bb	-0.55495805

encoder_variable_selection.prescalers.time_idx.bias f4 [8]
0	0x3eea991a	0.45819932
1	0x3fafaba6	1.3724258
2	0xbf41c965	-0.7569793
3	0x3f9662a9	1.1748859
4	0xbf901c57	-1.1258649
5	0xbf212075	-0.6294015
6	0x3f2994d5	0.66242725
7	0xbfd9ef4c	-1.7026153

encoder_variable_selection.prescalers.value.weight f4 [8, 1]
0	0x3f6454b3	0.8919174
1	0xbfaa4494	-1.3302178
2	0xbffd312e	-1.9780633
3	0xc017be3d	-2.3709862
4	0x3b27d4e0	0.002560906
5	0x3f7080c7	0.939465
6	0x3fe0b06d	1.7553841
7	0x3fdc64a0	1.7218208

encoder_variable_selection.prescalers.value.bias f4 [8]
0	0x3fecbf6b	1.8495916
1	0xbfd6ac70	-1.6771374
2	0xc05d7ebc	-3.4608603
3	0x3fec5885	1.8464514
4	0x3fe95111	1.8227865
5	0xbe9124ff	-0.28348538
6	0x3faf244d	1.3682953
7	0x3f91251a	1.1339447

decoder_variable_selection.single_variable_grns.time_idx.resample_norm.mask f4 [16]
0	0x3e974970	0.29548216
1	0xbd6456b7	-0.05574676
2	0x3fad1608	1.3522348
3	0xbeaa9f12	-0.33324486
4	0xbe0bd42e	-0.13655159
5	0xbf251fe5	-0.6450179
6	0xbfd80891	-1.6877614
7	0xbe846441	-0.25857738
8	0xbf0420aa	-0.5161234
9	0xbe34017b	-0.1757869
10	0x3e149abb	0.1451215
11	0x3f394f73	0.72386855
12	0xbed00bfe	-0.4063415
13	0xbe91809e	-0.2841844
14	0xbf2adce3	-0.66743296
15	0xbd1a306c	-0.037643835

decoder_variable_selection.single_variable_grns.time_idx.resample_norm.norm.weight f4 [16]
0	0x3f79e66d	0.97617227
1	0x3f463239	0.77420384
2	0x3fd6cf1e	1.6781957
3	0x3f1b2ad5	0.6061223
4	0x3ebac61f	0.3647928
5	0x3e8bfdda	0.2734211
6	0x3db62a12	0.08894743
7	0x3f0cdca6	0.5502418
8	0x3fa6c0e6	1.3027618
9	0x3ef93f37	0.48681042
10	0x3f7effd8	0.99609137
11	0x3fc2347e	1.5172269
12	0x3f12cec8	0.57346773
13	0x3f1537e9	0.5828844
14	0x3e575d15	0.21031602
15	0x3eff9def	0.4992518

decoder_variable_selection.single_variable_grns.time_idx.resample_norm.norm.bias f4 [16]
0	0xbf3b638f	-0.7319879
1	0xbdf3c3a0	-0.11902547
2	0x3f6f44da	0.93464434
3	0xbe4852d2	-0.19562843
4	0xbe384d00	-0.17998123
5	0x3f53679a	0.8257996
6	0xbea9815c	-0.33106506
7	0xbe0fce5d	-0.14043565
8	0x3e8cd08b	0.27502856
9	0x3e2f7f9a	0.1713852
10	0x3c56dddc	0.013114419
11	0xbfa49041	-1.2856523
12	0x3d74a1f6	0.05972477
13	0xbdeddb79	-0.11614127
14	0x3e9de9a3	0.30842313
15	0x3f072536	0.52791154

decoder_variable_selection.single_variable_grns.time_idx.fc1.weight f4 [8, 8]
0	0x3fa8ab63	1.3177303
1	0x3fcf253a	1.6183236
2	0xc00557b4	-2.083478
3	0x403ce42b	2.9514263
4	0xbff86133	-1.9404663
5	0xbf80f249	-1.007394
6	0x40351090	2.829136
7	0xc031799e	-2.773048
8	0xbf0c6ab3	-0.5485031
9	0xbfb37ee6	-1.4023101
10	0x3fa6a14e	1.3017976
11	0xbce7badf	-0.02828735
12	0x3f03ce12	0.51486313
13	0x3e802d04	0.25034344
14	0x3ebdb704	0.37053692
15	0x3f582bea	0.8444201
16	0x3e38189f	0.17978142
17	0xbc432bc5	-0.011912291
18	0x3e966fe2	0.29382235
19	0xbf9a0aba	-1.2034523
20	0x3f6f3c94	0.9345181
21	0x3f24431f	0.6416492
22	0xbf5ffcfb	-0.8749539
23	0x3f082ac8	0.5319028
24	0x3f9ea1b5	1.2393099
25	0x4007c63a	2.1214738
26	0xbf8cc39e	-1.0997198
27	0x402e3c62	2.7224355
28	0xc034438d	-2.816623
29	0xbe8645b2	-0.26225048
30	0x3f221338	0.63310575
31	0xc01b1bfe	-2.4235835
32	0xbee5e955	-0.4490458
33	0x3f586013	0.845216
34	0x3f7ddd5c	0.9916589
35	0xbf34c022	-0.7060567
36	0x3f03a3c1	0.51421744
37	0x3e51138b	0.20417611
38	0xbf57d285	-0.843056
39	0x3f565819	0.83728176
40	0x3ecdaa6c	0.40169084
41	0xbe6258fa	-0.22104254
42	0x3ee6a710	0.45049334
43	0x3c9b1860	0.018932521
44	0xbe120ac4	-0.1426192
45	0xbf95e848	-1.1711512
46	0x3d0f0932	0.03492088
47	0xbe9fd26d	-0.3121523
48	0xbecb7efe	-0.39745325
49	0x3d07ab64	0.033122435
50	0xbf0572e2	-0.5212842
51	0x3f187a8a	0.5956198
52	0xbdc6fc0c	-0.09716043
53	0xbf228d87	-0.63497204
54	0x3edc6e52	0.43052918
55	0x3f292a82	0.66080487
56	0x3ecafdda	0.39646798
57	0xbe23dbf4	-0.16001874
58	0x3f243119	0.6413742
59	0x3e830750	0.25591516
60	0x3ea4689c	0.3211106
61	0xbd110487	-0.03540471
62	0xbed5713c	-0.41687953
63	0x3f5518c7	0.8324093

decoder_variable_selection.single_variable_grns.time_idx.fc1.bias f4 [8]
0	0x3fa39ee7	1.2782868
1	0xbec231a3	-0.37928495
2	0xbe89c8ce	-0.26911014
3	0x3faae13b	1.3349985
4	0xbe6095fa	-0.21932212
5	0x3e9e5b54	0.30929053
6	0xbd316133	-0.043305587
7	0xbeedceed	-0.46446934

decoder_variable_selection.single_variable_grns.time_idx.fc2.weight f4 [8, 8]
0	0x3e9100fc	0.28321064
1	0x3f4692fa	0.7756802
2	0xbe8643c2	-0.2622357
3	0xbcc6b8c9	-0.024258034
4	0xbd447a44	-0.047968164
5	0xbd71820c	-0.058961913
6	0xbebebff0	-0.37255812
7	0xbdefd506	-0.11710553
8	0xc09919c4	-4.784395
9	0x3fcaa67a	1.5832055
10	0x3feaf079	1.8354636
11	0xc05f1e1d	-3.486213
12	0xbe99b737	-0.30022594
13	0xc04ba94f	-3.1822088
14	0xc0161d37	-2.3455331
15	0x3fbc35ce	1.470392
16	0xc029de0c	-2.6541777
17	0x3edd8129	0.43262604
18	0x3f7b8888	0.98255205
19	0xc02a9862	-2.6655507
20	0xbf0c0a1b	-0.5470292
21	0xbfa1d0c5	-1.2641836
22	0xbf4ef78e	-0.8084649
23	0x3ec4be52	0.38426453
24	0xbf7bb233	-0.98318785
25	0x3d8592b5	0.06522123
26	0x3f19d9f7	0.6009821
27	0xbf4bbb5c	-0.7958276
28	0x3f128259	0.57230145
29	0xbe92fc40	-0.28708076
30	0x3efed5bc	0.4977244
31	0xbe1905be	-0.14943597
32	0xc093a05c	-4.613325
33	0x3fd92cda	1.6966813
34	0x3fd46217	1.6592435
35	0xc07efa83	-3.98404
36	0x3f83f077	1.0307759
37	0xc02ea0af	-2.7285573
38	0xc010f7dc	-2.2651281
39	0x3fe96f2f	1.8237056
40	0x40348ce6	2.8210998
41	0xbfe881f6	-1.8164661
42	0xbf555482	-0.83332074
43	0x4020d87f	2.5132139
44	0xbfb18ad0	-1.3870487
45	0x3fa93733	1.321997
46	0x3f47aec3	0.7800104
47	0x3ddcbcd9	0.10778207
48	0x40108e7e	2.258697
49	0xbf44f3a3	-0.7693426
50	0xbff821f4	-1.9385362
51	0x3ff84a9b	1.9397768
52	0xbf8d1457	-1.1021832
53	0x3fb3ea18	1.4055815
54	0x3f9b822b	1.2149099
55	0xbef619d4	-0.4806658
56	0xbed9fddc	-0.42576492
57	0xbf37f967	-0.7186493
58	0xbf9da8c1	-1.2317125
59	0xbc57703a	-0.0131493155
60	0xbf82240a	-1.0167248
61	0xbd94ff6e	-0.07275282
62	0xbd7c72d0	-0.06163293
63	0xbe8b4ff5	-0.2720944

decoder_variable_selection.single_variable_grns.time_idx.fc2.bias f4 [8]
0	0x3d9f6c7a	0.07784362
1	0xbf73b720	-0.952013
2	0xbf418e47	-0.75607723
3	0xbe82dbf1	-0.25558427
4	0xbfa39367	-1.2779359
5	0x3f56ee53	0.83957404
6	0x3f330048	0.69922304
7	0x3e91dc8d	0.2848858

decoder_variable_selection.single_variable_grns.time_idx.gate_norm.glu.fc.weight f4 [32, 8]
0	0x3eabb575	0.33536878
1	0xbe66b3c6	-0.22529516
2	0xbe754fea	-0.23956266
3	0x3e2930ef	0.16522573
4	0x3d5174cf	0.051136788
5	0x3ea4f5a2	0.32218653
6	0x3f0240a3	0.5087988
7	0x3e760027	0.24023496
8	0xbe0e16c8	-0.13875878
9	0xbe575a14	-0.21030456
10	0xbe8191a2	-0.25306422
11	0x3d5a44ed	0.05328839
12	0xbcfe56bb	-0.031047216
13	0x3e46b642	0.19405463
14	0xbe850ce9	-0.25986412
15	0x3e083357	0.13300835
16	0x3fae86fb	1.3634943
17	0xc0521363	-3.2824333
18	0xc03d5d05	-2.9588025
19	0xc03cf541	-2.952469
20	0xc066194d	-3.5952942
21	0x405ecae9	3.4811347
22	0x403f99d8	2.9937649
23	0x3fcde5b4	1.6085725
24	0xbf0398a8	-0.5140481
25	0x3d30026e	0.042971067
26	0xbe988226	-0.29786795
27	0xbcf8ca46	-0.030369889
28	0xbe4f6a6c	-0.2025544
29	0xbcb2bbfc	-0.021818154
30	0xbe7785fe	-0.24172208
31	0x3e814847	0.25250456
32	0x3de65430	0.11246526
33	0x3e57fdd3	0.2109292
34	0xbe3c4ea9	-0.18389381
35	0xbd944cf2	-0.07241239
36	0xbe285697	-0.16439281
37	0xbd1e9fe0	-0.038726687
38	0xbdd7b066	-0.10531692
39	0xbeb18e18	-0.3467872
40	0x3f001041	0.500248
41	0xbddf26c1	-0.108960636
42	0x3d887fac	0.066649765
43	0xbe72804b	-0.23681752
44	0x3ef99bd0	0.48751688
45	0xbedcded5	-0.43138757
46	0x3e0adf10	0.13561654
47	0x3f2717df	0.652708
48	0xbd158086	-0.036499523
49	0xbf4fd986	-0.8119129
50	0xbe788dcf	-0.24272846
51	0xbfab9d61	-1.3407403
52	0xbf9c7edd	-1.2226216
53	0xbe15ae3d	-0.14617248
54	0xbe50d20c	-0.20392627
55	0x3e70da3d	0.23520751
56	0xbe4540ec	-0.19263047
57	0xbe990e34	-0.2989365
58	0xbe679ca6	-0.2261835
59	0x3d45fcd6	0.048336826
60	0xbe88a52b	-0.26688513
61	0xbd97a6af	-0.07404839
62	0x3ce2ebbb	0.027700296
63	0x3e7c22b9	0.2462262
64	0xbee649c1	-0.44978145
65	0x3d4fe7d9	0.050758217
66	0xbceff6c1	-0.029292466
67	0xbdb91cc7	-0.09038692
68	0xbe63919e	-0.22223517
69	0x3e304f35	0.17217715
70	0xbe353ee7	-0.17699777
71	0xbe3755dc	-0.17903847
72	0xbeaaef4d	-0.33385697
73	0xbbf7a455	-0.0075574317
74	0xbe53e139	-0.20691384
75	0x3ce8d1ba	0.028420318
76	0x3d1fa198	0.038972467
77	0xbeaa1cfa	-0.33225232
78	0x3e686a5c	0.22696823
79	0x3e68374d	0.22677346
80	0xbd69745e	-0.056995742
81	0xbe28b56f	-0.16475461
82	0xbda5d679	-0.08097548
83	0x3f1265ae	0.571864
84	0xbe429c56	-0.1900495
85	0x3ea891ea	0.32923824
86	0xbf39b9fb	-0.7254941
87	0xbf112fe6	-0.5671371
88	0xbfcc96c1	-1.5983506
89	0x405c5fd3	3.4433486
90	0x405ae23d	3.4200585
91	0x40382ecf	2.877857
92	0x4056c1ac	3.3555708
93	0xc0499253	-3.149556
94	0xc0733dd5	-3.800649
95	0xc0017968	-2.023035
96	0x3eae60d1	0.3405824
97	0xbd98c6fe	-0.0745983
98	0xbd552974	-0.052041486
99	0x3e4a34c3	0.1974669
100	0x3c9ee159	0.019394564
101	0x3e48fca2	0.19627622
102	0x3da4c1de	0.0804479
103	0xbec4e5a2	-0.38456446
104	0x3cd9be93	0.02658013
105	0xbd86bf54	-0.06579462
106	0xbe4cc2aa	-0.19996133
107	0xbdc2036c	-0.09473309
108	0x3b89234b	0.0041851155
109	0xbe271f94	-0.1632064
110	0xbe0fead9	-0.14054431
111	0x3e1abbed	0.1511075
112	0xbe170408	-0.14747632
113	0x3ca1f025	0.01976783
114	0xbe2e9019	-0.17047156
115	0xbe6dc363	-0.23219065
116	0x3e385580	0.18001366
117	0xbd95bb0e	-0.073110685
118	0x3ec8cf8c	0.39220846
119	0xbe06cb28	-0.13163435
120	0xbe944348	-0.28957582
121	0x3e941064	0.28918755
122	0xbf0ef17e	-0.5583724
123	0xbf82c75e	-1.0217092
124	0xbe1dfe60	-0.15429068
125	0x3dbaac95	0.09114949
126	0xbd75782a	-0.05992905
127	0xbf0e6fee	-0.5563954
128	0xbe786295	-0.24256356
129	0x3e879a8b	0.26485094
130	0x3eb00a0a	0.3438266
131	0x3e974e54	0.29551947
132	0x3eb48db6	0.35264367
133	0xbf27ac6c	-0.6549747
134	0xbe845339	-0.25844744
135	0xbf0bca4d	-0.5460556
136	0xbe2389db	-0.15970556
137	0x3e426a64	0.18985897
138	0x3f29c6e2	0.66319096
139	0x3dc9b245	0.09848455
140	0x3ebf2ab9	0.37337282
141	0xbf7a3323	-0.9773428
142	0xbf962104	-1.1728826
143	0xbec6ebe6	-0.3885185
144	0x3e8a44a5	0.27005497
145	0xbeebf17e	-0.4608268
146	0xbf31d160	-0.69460106
147	0xbee5423c	-0.44777095
148	0xbf703cb6	-0.9384264
149	0x3ea3f9ca	0.3202651
150	0x3efe47fb	0.49664292
151	0x3eb2783c	0.34857357
152	0xbd7a4f62	-0.06111086
153	0x3e0129a6	0.12613544
154	0x3edc2389	0.4299586
155	0x3da77fa2	0.08178641
156	0x3f0aabd5	0.54168445
157	0xbf112895	-0.5670255
158	0xbee0a6c2	-0.43877226
159	0x3e1b295c	0.15152496
160	0xbe91c4da	-0.28470498
161	0x3ecdeb8e	0.40218776
162	0x3ec678f2	0.3876415
163	0x3e8d74a7	0.2762806
164	0x3f1495c3	0.5804102
165	0xbe7454a6	-0.23860416
166	0xbecb3881	-0.39691547
167	0xbec1093b	-0.37702355
168	0xbf80f928	-1.0076036
169	0x3f038617	0.5137648
170	0x3ef730be	0.48279375
171	0x3f3f8ae2	0.74821293
172	0x3e36b692	0.17843083
173	0xbeaf3df1	-0.34226945
174	0xbeed404f	-0.46338126
175	0xbf900547	-1.125161
176	0x3eb95faa	0.36205798
177	0x3e5986b5	0.21242793
178	0x3fdbc527	1.7169541
179	0x3f02a100	0.51026917
180	0x3f7d46ae	0.98935974
181	0xc011b755	-2.2768147
182	0xc010ae8c	-2.2606535
183	0x3e89f9f3	0.2694851
184	0xbd72f85a	-0.059318878
185	0x3e813e11	0.25242665
186	0x3e424558	0.18971765
187	0x3e60741b	0.2191929
188	0x3ed111ec	0.40833986
189	0xbed0029e	-0.40626997
190	0xbdf7687e	-0.12080477
191	0xbd8c9083	-0.06863501
192	0x3e3a412b	0.18188922
193	0x3e5188f6	0.20462403
194	0x3ea7ae8f	0.32750365
195	0x3edf3877	0.43597767
196	0x3e5e8801	0.21731569
197	0xbe8620ce	-0.26196903
198	0xbdf315bf	-0.11869382
199	0xbea583dd	-0.32327166
200	0xbe6baa27	-0.23014127
201	0x3daced19	0.0844366
202	0x3e960252	0.29298645
203	0x3ed693a8	0.41909528
204	0x3efb259f	0.4905214
205	0xbed37757	-0.41301987
206	0xbed4a374	-0.41530955
207	0xbe97d24c	-0.2965263
208	0x3e832a3c	0.2561816
209	0x3d82201d	0.06353781
210	0xbf2a4725	-0.6651481
211	0xbf0659f0	-0.52480984
212	0xbf0a3737	-0.539905
213	0x3ede16c5	0.43376747
214	0x3eeb8e87	0.46007177
215	0xbe7095c3	-0.2349463
216	0xbf2de7fd	-0.6793211
217	0xbea0931a	-0.3136223
218	0xbf95c9f9	-1.1702262
219	0xbf1dd764	-0.61656785
220	0xbf925f6d	-1.1435372
221	0x3f0b149c	0.5432832
222	0x3f452853	0.77014655
223	0x3ea84cc1	0.3287106
224	0xbeb0f733	-0.34563598
225	0x3f1ef510	0.62092686
226	0x3e1fb0cd	0.15594788
227	0x3e58d491	0.21174838
228	0x3ef2b12b	0.47400793
229	0xbe95eb52	-0.29281098
230	0xbf135563	-0.57552165
231	0x3d7c8929	0.061654244
232	0x3e937a5d	0.28804293
233	0x3e59b885	0.21261795
234	0x3ea5d6c2	0.3239041
235	0x3de1aadf	0.11018919
236	0x3da1fd52	0.07909645
237	0xbe27f4e2	-0.16402009
238	0xbef61b3e	-0.4806766
239	0xbe0630ea	-0.13104597
240	0xbef758e7	-0.48310015
241	0x3eb97b53	0.362269
242	0x3edc2683	0.42998132
243	0x3eab9903	0.33515176
244	0x3dc84195	0.09778134
245	0xbf07a7f5	-0.5299066
246	0xbeca20e0	-0.39478207
247	0xbec24244	-0.37941182
248	0xbf1b3970	-0.6063452
249	0x3f036d2e	0.5133847
250	0x3f46c517	0.77644485
251	0x3f3b8fdd	0.7326639
252	0x3f865dce	1.0497377
253	0xbf82c58d	-1.0216538
254	0xbfee19d3	-1.8601631
255	0x3f0a1dc0	0.53951645

decoder_variable_selection.single_variable_grns.time_idx.gate_norm.glu.fc.bias f4 [32]
0	0x3d1ba519	0.037999246
1	0x3df22078	0.11822599
2	0x3f90c9f6	1.1311634
3	0xbd8f9d91	-0.07012475
4	0xbe83a4a6	-0.25711554
5	0xbdf19cde	-0.11797498
6	0xbd205e90	-0.03915268
7	0xbd172903	-0.036904346
8	0x3d0d31c4	0.03447129
9	0xbdc126c0	-0.09431219
10	0xbd859d4c	-0.065241426
11	0xbfc4cb9c	-1.5374637
12	0x3c23bf67	0.009994364
13	0x3d82f6d9	0.06394739
14	0x3c685f8d	0.014182937
15	0x3c997eb5	0.018737176
16	0xbdff4a6a	-0.12465365
17	0xbe5237c9	-0.20529093
18	0x3f46daad	0.7767742
19	0xbe4e898a	-0.20169654
20	0xbe12c42b	-0.14332645
21	0xbe6b19d7	-0.22959076
22	0xbdac4782	-0.084120765
23	0xbddf9a95	-0.10918156
24	0xbe1a9195	-0.15094598
25	0xbd01c2af	-0.031679805
26	0x3e310f83	0.17291074
27	0x3f02b42c	0.5105617
28	0xbe995d98	-0.2995422
29	0xbdfa9d5c	-0.12237045
30	0xbe7f12ff	-0.2490959
31	0xbed98409	-0.42483547

decoder_variable_selection.single_variable_grns.time_idx.gate_norm.add_norm.norm.weight f4 [16]
0	0x3d523ac7	0.051325586
1	0xbde83ab8	-0.11339325
2	0x3e2a28c8	0.1661712
3	0x3ce587b7	0.028018815
4	0xbcb668d8	-0.02226679
5	0x3ed11089	0.40832928
6	0x3ec0f7ea	0.37689143
7	0x3e5a39a6	0.21311054
8	0xbab19a4a	-0.001355001
9	0x3b743d6c	0.0037268056
10	0xb998ebbf	-0.00029167344
11	0x3db63778	0.088972986
12	0x3e834653	0.2563959
13	0x3cabfff2	0.020996068
14	0x3ebf4ff0	0.37365675
15	0xbe5e6b32	-0.2172058

decoder_variable_selection.single_variable_grns.time_idx.gate_norm.add_norm.norm.bias f4 [16]
0	0xbc9d1430	-0.019174665
1	0x3cacaf27	0.021079613
2	0xbea09354	-0.31362402
3	0xbd3c2abe	-0.0459392
4	0x3bfff02e	0.007810614
5	0xbd0754c0	-0.03303981
6	0x3d777a92	0.060419627
7	0xbc01c9ca	-0.007921645
8	0x3d432241	0.04764009
9	0xbbae4798	-0.0053185932
10	0x3c63549d	0.013875154
11	0x3d40a8d0	0.047035992
12	0xbd6362f5	-0.055514295
13	0xbdbad146	-0.09121947
14	0xbdb23227	-0.08700972
15	0xb8fe1680	-0.00012115855

decoder_variable_selection.prescalers.time_idx.weight f4 [8, 1]
0	0x3f8479c6	1.0349662
1	0xbdf6a02b	-0.12042268
2	0x3d6776f6	0.056509934
3	0xbe47fc8b	-0.19529931
4	0xbd820397	-0.06348341
5	0x3f9436c1	1.157921
6	0x3e3e5da7	0.18590413
7	0xbf0e11bb	-0.55495805

decoder_variable_selection.prescalers.time_idx.bias f4 [8]
0	0x3eea991a	0.45819932
1	0x3fafaba6	1.3724258
2	0xbf41c965	-0.7569793
3	0x3f9662a9	1.1748859
4	0xbf901c57	-1.1258649
5	0xbf212075	-0.6294015
6	0x3f2994d5	0.66242725
7	0xbfd9ef4c	-1.7026153
